…
":{"colab":{"base_uri":"https://localhost:8080/"},"id":"mmGUpi14wra9","outputId":"1803bef5-e95f-426d-9d53-4f2394201f0c","executionInfo":{"status":"ok","timestamp":1679164090304,"user_tz":240,"elapsed":321,"user":{"displayName":"Derek Ni","userId":"04123561906253208711"}}},"outputs":[{"output_type":"stream","name":"stdout","text":["Model: \"sequential_2\"\n","_________________________________________________________________\n"," Layer (type)                Output Shape              Param #   \n","=================================================================\n"," dense_8 (Dense)             (None, 16)                12560     \n","                                                                 \n"," dense_9 (Dense)             (None, 8)                 136       \n","                                                                 \n"," dense_10 (Dense)            (None, 4)                 36        \n","                                                                 \n"," dense_11 (Dense)            (None, 8)                 40        \n","                                                                 \n"," dense_12 (Dense)            (None, 16)                144       \n","                                                                 \n"," dense_13 (Dense)            (None, 784)               13328     \n","                                                                 \n","=================================================================\n","Total params: 26,244\n","Trainable params: 26,244\n","Non-trainable params: 0\n","_________________________________________________________________\n"]}],"source":["autoencoder = Sequential()\n","\n","# Encoder Layers\n","autoencoder.add(Dense(8 * en
…
wra_","scrolled":false,"colab":{"base_uri":"https://localhost:8080/"},"outputId":"74eb267f-35cd-4cac-be43-f68f1e1b5108","executionInfo":{"status":"ok","timestamp":1679164996826,"user_tz":240,"elapsed":894,"user":{"displayName":"Derek Ni","userId":"04123561906253208711"}}},"outputs":[{"output_type":"stream","name":"stdout","text":["Model: \"sequential_4\"\n","_________________________________________________________________\n"," Layer (type)                Output Shape              Param #   \n","=================================================================\n"," conv2d_1 (Conv2D)           (None, 28, 28, 16)        160       \n","                                                                 \n"," max_pooling2d (MaxPooling2D  (None, 14, 14, 16)       0         \n"," )                                                               \n","                                                                 \n"," conv2d_2 (Conv2D)           (None, 14, 14, 8)         1160      \n","                                                                 \n"," max_pooling2d_1 (MaxPooling  (None, 7, 7, 8)          0         \n"," 2D)                                                             \n","                                                                 \n"," conv2d_3 (Conv2D)           (None, 4, 4, 8)           584       \n","                                                                 \n"," flatten (Flatten)           (None, 128)               0         \n","                                                                 \n"," reshape (Reshape)           (None, 4, 4, 8)           0         \n","                                                                 \n"," conv2d_4 (Conv2D)           (None, 4, 4, 8)           584       \n","                                                                 \n"," up_sampling2d (UpSampling2D  (None, 8, 8, 8)          0         \n"," )                                                               \n","                                                                 \n"," conv2d_5 (Conv2D)           (None, 8, 8, 8)           584       \n","                                                                 \n"," up_sampling2d_1 (UpSampling  (None, 16, 16, 8)        0         \n"," 2D)                                                             \n","                                                                 \n"," conv2d_6 (Conv2D)           (None, 14, 14, 16)        1168      \n","                                                                 \n"," up_sampling2d_2 (UpSampling  (None, 28, 28, 16)       0         \n"," 2D)                                                             \n","                                                                 \n"," conv2d_7 (Conv2D)           (None, 28, 28, 1)         145       \n","                                                                 \n","=================================================================\n","Total params: 4,385\n","Trainable params: 4,385\n","Non-trainable params: 0\n","_________________________________________________________________\n"]}],"source":["autoencoder = Sequential()\n","\n","# Encoder Layers\n","autoencoder.add(Conv2D(16, (
…
:{"status":"ok","timestamp":1679164999720,"user_tz":240,"elapsed":114,"user":{"displayName":"Derek Ni","userId":"04123561906253208711"}}},"outputs":[{"output_type":"stream","name":"stdout","text":["Model: \"model_4\"\n","_________________________________________________________________\n"," Layer (type)                Output Shape              Param #   \n","=================================================================\n"," conv2d_1_input (InputLayer)  [(None, 28, 28, 1)]      0         \n","                                                                 \n"," conv2d_1 (Conv2D)           (None, 28, 28, 16)        160       \n","                                                                 \n"," max_pooling2d (MaxPooling2D  (None, 14, 14, 16)       0         \n"," )                                                               \n","                                                                 \n"," conv2d_2 (Conv2D)           (None, 14, 14, 8)         1160      \n","                                                                 \n"," max_pooling2d_1 (MaxPooling  (None, 7, 7, 8)          0         \n"," 2D)                                                             \n","                                                                 \n"," conv2d_3 (Conv2D)           (None, 4, 4, 8)           584       \n","                                                                 \n"," flatten (Flatten)           (None, 128)               0         \n","                                                                 \n","=================================================================\n","Total params: 1,904\n","Trainable params: 1,904\n","Non-trainable params: 0\n","_________________________________________________________________\n"]}],"source":["#encoder = Model(inputs=autoencoder.input, outputs=autoencoder.get_layer('flatten_1
…
